egs/LJSpeech/s1/pretrained/wn-l12s2k2-16k_WORLD_mgc30_norm_params.npy (npy, 1136 bytes, 1 tensors)

array f8 [2, 63]
00000000: 0000 00c0 0df4 1540 0000 0060 f094 fd3f
00000010: 0000 0060 683a b83f 0000 0020 5fad c13f
00000020: 0000 0040 f17a d6bf 0000 0040 2e80 b3bf
00000030: 0000 0040 0753 afbf 0000 0080 4d3c a83f
00000040: 0000 0040 7f08 933f 0000 00c0 2584 afbf
00000050: 0000 0020 c389 ba3f 0000 0080 4abe a3bf
00000060: 0000 00e0 884c 6b3f 0000 0000 d941 8fbf
00000070: 0000 0020 7d39 b03f 0000 0080 eb8b adbf
00000080: 0000 00c0 4622 a23f 0000 0060 3610 87bf
00000090: 0000 0040 b340 6e3f 0000 0040 c4c7 713f
000000a0: 0000 00a0 0731 45bf 0000 0080 068f 7dbf
000000b0: 0000 00a0 43aa 773f 0000 0060 b3ba 76bf
000000c0: 0000 00e0 9915 573f 0000 00a0 1e0a 683f
000000d0: 0000 00a0 f1dd 7dbf 0000 0000 3fa4 873f
000000e0: 0000 0060 f59a 8fbf 0000 0020 e886 893f
000000f0: 0000 00c0 d67d 76bf 0000 0080 7248 49bf
00000100: 0000 0080 1013 683f 0000 0080 9ce7 64bf
00000110: 0000 0040 3008 553f 0000 0020 8772 233f
00000120: 0000 00c0 5b6c 5bbf 0000 0040 608e 673f
00000130: 0000 0060 aa5e 65bf 0000 0020 270d 5f3f
00000140: 0000 00c0 d81d 54bf 0000 00a0 0cfe 5d3f
00000150: 0000 0000 bfeb 65bf 0000 0000 be6d 6c3f
00000160: 0000 0000 1a43 6bbf 0000 0020 5d50 673f
00000170: 0000 0040 1eff 60bf 0000 00a0 1d9e 553f
00000180: 0000 0000 d9f6 3ebf 0000 00a0 6f0e 0fbf
00000190: 0000 00e0 9b3a 3e3f 0000 0000 25c0 45bf
000001a0: 0000 0040 539a 463f 0000 0000 9bb0 42bf
000001b0: 0000 00a0 7251 343f 0000 00a0 9d53 053f
000001c0: 0000 0080 8b91 42bf 0000 0080 6c64 533f
000001d0: 0000 00c0 1a44 5ebf 0000 0040 5766 753f
000001e0: 0000 00c0 e428 1540 0000 0000 0000 0000
000001f0: 0000 0040 c037 13c0 0000 00a0 2fc7 f63f
00000200: 0000 0020 ebd7 f13f 0000 00a0 b9a1 e53f
00000210: 0000 0060 075a dc3f 0000 0080 8cd3 dd3f
00000220: 0000 0080 1f1d d53f 0000 00c0 066c d13f
00000230: 0000 0040 a141 ce3f 0000 0040 db97 ca3f
00000240: 0000 0040 8764 c83f 0000 0040 a06e c63f
00000250: 0000 00e0 2cfa c23f 0000 00a0 f4fd c13f
00000260: 0000 0020 9e5e c13f 0000 0060 11ab c13f
00000270: 0000 00c0 04b2 c03f 0000 0040 5faf be3f
00000280: 0000 00e0 6da3 bc3f 0000 00e0 1eb0 ba3f
00000290: 0000 0020 907e ba3f 0000 0000 41ed b93f
000002a0: 0000 00c0 89ba b73f 0000 0040 7508 b63f
000002b0: 0000 0060 b26c b53f 0000 0000 1e4c b53f
000002c0: 0000 0020 89df b43f 0000 0020 ed10 b43f
000002d0: 0000 0000 700b b33f 0000 0020 992b b23f
000002e0: 0000 0060 8047 b13f 0000 00e0 3b7f b03f
000002f0: 0000 00c0 c1fa af3f 0000 00a0 5708 af3f
00000300: 0000 0040 ccd9 ad3f 0000 0020 beb7 ac3f
00000310: 0000 00e0 a291 ab3f 0000 00a0 e283 aa3f
00000320: 0000 00a0 a398 a93f 0000 0000 6cd6 a83f
00000330: 0000 0020 374f a83f 0000 0020 38ee a73f
00000340: 0000 00e0 3e7f a73f 0000 0080 66ed a63f
00000350: 0000 00e0 472f a63f 0000 00e0 8b62 a53f
00000360: 0000 00e0 0494 a43f 0000 00c0 3ad4 a33f
00000370: 0000 0020 ce3a a33f 0000 0000 6dd7 a23f
00000380: 0000 0080 0989 a23f 0000 00c0 f730 a23f
00000390: 0000 0040 4bcb a13f 0000 00e0 f65c a13f
000003a0: 0000 0060 dfe6 a03f 0000 0000 6c6d a03f
000003b0: 0000 00a0 58f7 9f3f 0000 0060 a433 9f3f
000003c0: 0000 0020 8b85 9e3f 0000 0000 dace 9d3f
000003d0: 0000 0060 5725 ac3f 0000 0060 0352 d03f
000003e0: 0000 0000 0000 f03f 0000 0040 4fd4 1740
5.488333702087402 1.8488620519638062 0.09464123100042343 0.13810338079929352 -0.35125380754470825 -0.07617463171482086 -0.06118033081293106 0.047335073351860046
0.018587101250886917 -0.061555080115795135 0.1036645844578743 -0.03856118023395538 0.0033323930110782385 -0.015262313187122345 0.06337720900774002 -0.05770812928676605
0.03541775792837143 -0.011261391453444958 0.0036929608322679996 0.004340902902185917 -0.000646713946480304 -0.007216477766633034 0.005777610931545496 -0.005549145396798849
0.0014089586911723018 0.0029345129150897264 -0.007291740272194147 0.011543743312358856 -0.015432278625667095 0.012464345432817936 -0.005491103045642376 -0.000771575840190053
0.0029387781396508217 -0.0025518471375107765 0.0012836905661970377 0.00014837169146630913 -0.0016737838741391897 0.0028755073435604572 -0.002608616603538394 0.0018952257232740521
-0.0012278191279619932 0.0018305896082893014 -0.0026758890599012375 0.0034702979028224945 -0.0033278949558734894 0.002845937618985772 -0.002074774820357561 0.0013194360071793199
-0.000472476938739419 -5.9235364460619166e-05 0.0004612570337485522 -0.0006637745536863804 0.0006897837156429887 -0.0005703694187104702 0.00031003044568933547 4.067730696988292e-05
-0.0005666667129844427 0.001183610875159502 -0.0018472920637577772 0.005224552936851978 5.289935111999512 0.0 -4.804444313049316 1.4236294031143188
1.115214467048645 0.6759918332099915 0.4429949223995209 0.46603691577911377 0.3299025297164917 0.27221840620040894 0.23637786507606506 0.207759290933609
0.19056788086891174 0.1752510368824005 0.1482597440481186 0.14056260883808136 0.13570000231266022 0.13803307712078094 0.13043269515037537 0.11986346542835236
0.1118687316775322 0.10424988716840744 0.10349369794130325 0.1012764573097229 0.09269009530544281 0.08606655895709991 0.08368983119726181 0.08319270610809326
0.08153588324785233 0.07838327437639236 0.07439327239990234 0.07097775489091873 0.06749727576971054 0.06444143503904343 0.062459997832775116 0.06061052158474922
0.05830229073762894 0.05608934536576271 0.053845491260290146 0.05178745463490486 0.04999266937375069 0.04851090908050537 0.04747936502099037 0.04673934355378151
0.045892681926488876 0.04477997124195099 0.043329473584890366 0.04176747426390648 0.04019179567694664 0.03872855752706528 0.037558022886514664 0.03679981827735901
0.03620176017284393 0.03552984446287155 0.034754134714603424 0.03391238674521446 0.03301141783595085 0.03208482265472412 0.03121698834002018 0.030470436438918114
0.02980630286037922 0.02910938858985901 0.054972391575574875 0.25500568747520447 1.0 5.957333564758301
